best_model_weights.pth (torch, 36022 bytes, 5 tensors)

gru.weight_ih_l0 f4 [150, 3]
-0.51760334 0.33825347 -0.32184935 0.106390655 -0.32666364 -0.16490336 -0.615136 -0.22999035
-0.22281975 -0.87978995 -1.003978 0.011181459 -0.61400163 -1.5401806 -1.5615766 -1.1959802
-2.6824288 -1.883547 -0.41472828 -0.75179416 -0.6194805 -0.52443916 -0.07761596 -0.11601379
-1.2746773 -2.190272 -1.3160306 0.10242084 1.5830951 -0.27738908 -0.07020766 0.15911442
-0.05899805 -0.44553444 -0.74252003 -0.54112023 -0.775669 -1.2273543 -0.502011 -0.35091984
-0.4290287 -0.4456761 -0.37713233 -0.032703247 -0.27032593 -0.2748495 -0.088031694 -0.1549718
-0.78017354 -1.9055713 -1.1849225 -0.67133224 -0.9606615 -0.8805391 -0.5597005 -0.16485752
-0.016129032 -0.23203774 0.23435229 -0.40221286 -0.38738465 -1.3365049 -1.2731811 -0.23079644
0.28860673 -0.17715539 -0.5590843 -0.29288855 -0.057616416 -0.69927233 0.37017128 -0.07679036
0.009225957 0.0057490007 0.023306161 -0.75220245 -0.13085441 -0.206851 -0.28680855 -0.16881043
-0.09449255 -1.7270902 -2.2538376 -2.1545758 -0.9052839 -0.51140815 -0.918295 -0.0200026
-0.8463054 -0.4632947 -0.3627681 0.11307823 -0.23135586 -0.102749005 -0.05716752 -0.55035055
-0.34845293 -0.29621202 -0.19192708 -0.7485028 -0.25975546 -0.2096123 -0.78130454 -0.3529446
-0.014672465 -0.7978778 -0.56898224 -0.4554239 -0.33946875 -0.9008832 -0.6253651 -0.38244456
0.15917002 -0.48133394 -0.56630933 -0.40377578 -0.1959229 -0.15386438 -0.32732043 -0.24341252
-0.05697263 -0.24877316 -0.20499855 -0.70401186 -0.6826075 -0.1552554 -0.33846346 0.1961846
-0.10895044 -0.07541418 0.28163317 -0.37694985 -0.53394014 -0.35479078 -0.20576338 -0.23252323
-0.28161216 -0.81662893 0.024746107 0.3742092 -0.12871237 -1.9138643 -1.5902714 -1.1778681
-0.36867693 -0.83119726 -1.1683612 0.3908564 1.0498768 -0.48819777 -0.2237335 0.7510116
1.5200801 -0.05453496 0.6243037 0.25879103 1.7616129 2.1853456 1.7326392 1.1593498
1.5538613 0.75107 -0.7656906 -0.27542898 0.31977436 -0.33374798 1.0975436 1.3639457
1.4131368 1.4135737 1.6729665 0.616377 1.3864845 1.236981 -1.156791 0.41560808
-0.039543193 -0.2763852 -0.62666935 0.03263409 0.03159248 0.8873665 0.6927194 1.274328
1.207611 1.6895632 1.6533412 1.3363576 0.89636445 1.5168517 1.5023293 1.4521618
1.0795656 2.5462992 2.4532485 0.80830306 1.6952714 1.5787083 -0.29252142 0.32756096
0.5445482 -0.503427 0.667645 0.45150396 1.6306653 0.9508375 1.1399412 -0.53255826
-1.6132025 0.91482717 -0.68800247 0.6443476 0.22448762 -0.3693922 0.8246383 -0.20554432
1.6496222 0.8708912 1.2686461 -0.6326437 0.71943057 1.1228772 1.2372799 0.56093967
0.96231157 -0.33532178 1.428472 0.4605707 0.91554916 1.6641885 1.5223128 -0.26814082
0.14822948 0.64100194 1.5386499 1.3779144 -0.05463738 1.7233998 1.7563866 1.8434948
-0.5882948 1.9309957 -0.19278531 -0.52466565 1.4112982 -0.2684927 -0.34929568 0.9921016
0.8193706 -0.48499376 0.8561848 0.5351466 1.1187259 1.4913876 0.94512457 -0.20321724
00000000: a781 04bf 8f2f ad3e 70c9 a4be 58e3 d93d
00000010: 7540 a7be 6ddc 28be 8e79 1dbf 9782 6bbe
00000020: dc2a 64be ea39 61bf 5a82 80bf 7032 373c
00000030: 362f 1dbf a324 c5bf bee1 c7bf e115 99bf
00000040: eaac 2bc0 1118 f1bf 4457 d4be 9575 40bf
00000050: 4696 1ebf a541 06bf 1ef5 9ebd a398 edbd
00000060: a028 a3bf 6b2d 0cc0 b173 a8bf 04c2 d13d
00000070: dca2 ca3f f105 8ebe 09c9 8fbd e4ee 223e
00000080: f0a7 71bd 171d e4be cb15 3ebf db86 0abf
00000090: 3e92 46bf f219 9dbf cb83 00bf c4ab b3be
000000a0: a6a9 dbbe a82f e4be 7d17 c1be d7f3 05bd
000000b0: 2968 8abe 13b9 8cbe f649 b4bd edb0 1ebe
000000c0: 74b9 47bf c3e9 f3bf 8aab 97bf 6edc 2bbf
000000d0: e9ed 75bf 036b 61bf 8848 0fbf 69d0 28be
000000e0: 0821 84bc 4d9b 6dbe 0cfa 6f3e d8ee cdbe
000000f0: 4857 c6be 9812 abbf 99f7 a2bf e755 6cbe
00000100: 43c4 933e 3968 35be 2620 0fbf 7df5 95be
00000110: 31ff 6bbd 8303 33bf 1787 bd3e 4444 9dbd
00000120: 7828 173c 1d62 bc3b 90ec be3c 5790 40bf
00000130: b3fe 05be c0d0 53be 92d8 92be a4dc 2cbe
00000140: 4f85 c1bd 4b11 ddbf e03e 10c0 92e4 09c0
00000150: b0c0 67bf a5eb 02bf 6215 6bbf 7edc a3bc
00000160: 78a7 58bf f734 edbe bebc b9be 8f95 e73d
00000170: 8de8 6cbe 126e d2bd 7d28 6abd c6e3 0cbf
00000180: 6c68 b2be 1aa9 97be 8888 44be e19d 3fbf
00000190: abfe 84be 9ba4 56be 9303 48bf 28b5 b4be
000001a0: c764 70bc b841 4cbf d2a8 11bf 522d e9be
000001b0: d9ce adbe 48a0 66bf ed17 20bf c6cf c3be
000001c0: 77fd 223e 6771 f6be a6f9 10bf b3bb cebe
000001d0: 03a0 48be a08e 1dbe 8b96 a7be 2241 79be
000001e0: 225c 69bd 64be 7ebe 24eb 51be 1f3a 34bf
000001f0: 5dbf 2ebf 46fb 1ebe 154b adbe 9ee4 483e
00000200: 6921 dfbd c072 9abd 3932 903e 92ff c0be
00000210: 4db0 08bf 23a7 b5be a3b3 52be 921a 6ebe
00000220: 782f 90be 980e 51bf 59b8 ca3c 5998 bf3e
00000230: 2dcd 03be 81f9 f4bf 038e cbbf 62c4 96bf
00000240: 39c3 bcbe 58c9 54bf dc8c 95bf 541e c83e
00000250: 5d62 863f 0ff5 f9be 651a 65be 4c42 403f
00000260: fc91 c23f 0d60 5fbd 5ed2 1f3f 4280 843e
00000270: 887c e13f b4dc 0b40 1fc7 dd3f 9365 943f
00000280: ede4 c63f 2046 403f 4d04 44bf 0705 8dbe
00000290: 77b9 a33e 04e1 aabe 4f7c 8c3f c695 ae3f
000002a0: abe1 b43f fcef b43f c423 d63f e2ca 1d3f
000002b0: 5378 b13f 6555 9e3f ba11 94bf 95ca d43e
000002c0: 0bf8 21bd 5c82 8dbe 676d 20bf 53ab 053d
000002d0: 1e67 013d 732a 633f 0f56 313f 2e1d a33f
000002e0: ff92 9a3f 9b43 d83f afa0 d33f c40d ab3f
000002f0: 2478 653f 3228 c23f 544c c03f 70e0 b93f
00000300: 352f 8a3f 91f6 2240 0602 1d40 f3ec 4e3f
00000310: a7fe d83f 1d13 ca3f 5ec5 95be 12b6 a73e
00000320: 8367 0b3f 98e0 00bf c8ea 2a3f 872b e73e
00000330: a4b9 d03f 166a 733f 98e9 913f bd55 08bf
00000340: 6b7d cebf 1d32 6a3f ee20 30bf f7f3 243f
00000350: 15e0 653e f920 bdbe 7f1b 533f 367a 52be
00000360: d226 d33f baf2 5e3f ff62 a23f f0f4 21bf
00000370: 9a2c 383f 71ba 8f3f 305f 9e3f be99 0f3f
00000380: 0d5a 763f 4caf abbe 2cd8 b63f eccf eb3e
00000390: 6e61 6a3f 2104 d53f 25db c23f c149 89be
000003a0: 78c9 173e b418 243f 7bf2 c43f 805f b03f
000003b0: 72cb 5fbd 5d98 dc3f 47d1 e03f a3f7 eb3f
000003c0: 7d9a 16bf de2a f73f 8369 45be 7d50 06bf
000003d0: 6ba5 b43f e077 89be e2d6 b2be 5ffa 7d3f
000003e0: 46c2 513f 1a51 f8be ed2e 5b3f 5eff 083f
000003f0: 6932 8f3f cae5 be3f aff3 713f 2e18 50be

gru.weight_hh_l0 f4 [150, 50]
0.27167538 -0.080130704 0.050542757 0.22314458 0.29096675 -0.23885995 -0.004399306 0.061151225
0.24548586 -0.5609576 -0.1813249 0.08739604 0.5008891 -0.07638796 -0.040175952 0.06859163
0.11537498 -0.3229112 0.24563132 0.18166274 0.316804 -0.0049862787 0.23516302 -0.05334136
-0.058813922 0.3082479 -0.15717289 0.0929641 0.16537692 -0.10927861 0.009928364 -0.114862405
0.08489212 0.21687527 -0.45986176 0.22683133 -0.00960703 0.228033 -0.15003644 -0.053770393
0.15672454 0.43362275 -0.14963262 -0.2810873 0.044313367 -0.07453241 -0.2595578 -0.13517785
-0.3501761 0.17598404 0.10816802 -1.0589628 0.08125721 -0.61555135 0.23750229 -0.0808425
0.0603808 -0.19695605 0.13287564 0.4220503 -0.030141003 -0.108944654 -0.7222176 -0.10946923
0.034285832 -0.128453 0.2517451 -0.29875064 0.115536965 0.14390257 0.13961495 -0.11143354
0.25515887 -0.16574591 0.085231416 0.03156064 0.14751972 0.073570184 0.12902251 0.14451884
0.20213659 -0.19288251 -0.20771983 0.21224657 0.96535784 0.12673163 0.06484806 -0.11876283
0.21784873 0.116032235 0.08866463 -0.8262355 0.25519204 -0.20583035 0.025412729 0.13396904
0.21162228 0.01859463 0.028831268 -0.5913691 -0.007746703 0.26334116 0.567094 -0.0914776
0.3341873 -0.41980636 -0.03030046 0.057145976 0.41307488 0.4868458 0.051574204 0.13715003
-0.08279719 -0.17976102 0.009987934 0.034504406 0.073503405 -0.3295366 0.020036586 0.09809621
0.230247 -0.08754045 -0.19158608 0.068387896 0.17567614 0.18672179 -0.09206466 0.22936937
-0.5071649 0.037384562 0.295089 -0.28332403 0.10689416 0.17383151 0.06866678 0.16406778
0.0819153 0.016645374 0.050581194 0.06389202 0.22946666 -0.1111456 -0.01673493 -0.13345695
-0.058030188 -0.16062805 -0.026639797 -0.48826212 -0.13893987 -0.34951222 0.06316224 1.5062625
-0.21080953 0.17161664 0.82698554 -1.1586717 -0.40453 -0.11624053 0.8784107 1.464337
-0.38645524 -0.35542426 -1.0214864 -0.09868362 0.5477839 0.057253562 0.9466969 -1.0400182
-0.4678301 0.8549549 0.29775786 -0.3591952 -1.0702721 0.38448173 0.8014096 0.89660394
-0.58677816 1.0395899 -1.1203797 0.3436779 1.0151142 -1.1580441 0.7566629 0.8966586
0.4426653 0.76004785 0.10602917 -0.33458704 -0.35082012 -0.81162786 0.4020592 -0.7042604
0.8091795 -0.7538097 0.22552803 -0.33244064 0.9698742 -0.681018 -0.9390564 -1.7807992
0.4330536 0.461435 0.13707869 -0.6609192 1.1259243 -0.7412226 0.15280205 -0.16676718
1.1983473 0.7739338 0.1586789 0.086113855 -0.72748727 0.116162375 0.5236176 -0.318598
0.62216735 -0.84307045 0.09449711 0.26512 1.381092 -0.3070955 0.246371 -0.022191
-0.41404772 0.9887164 0.31909993 -0.20613733 -0.64681196 -0.05430529 0.40543 -0.44118613
-0.23244415 0.07816474 0.6087051 0.17777209 0.05277838 -0.5008606 0.24052435 0.22778235
0.21464969 -0.30667132 0.93287814 -0.27378276 -0.6920567 -0.26636714 0.57418 -1.022075
-0.18658826 -0.15995255 0.7626389 0.41948783 -0.2618575 -0.7325757 1.4050411 -1.2684197
00000000: 0919 8b3e 911b a4bd ec05 4f3d 0380 643e
00000010: 98f9 943e b497 74be 0e28 90bb b579 7a3d
00000020: a560 7b3e eb9a 0fbf 3cad 39be b2fc b23d
00000030: 453a 003f 4a71 9cbd 8a8f 24bd c579 8c3d
00000040: b849 ec3d 9e54 a5be c786 7b3e cc05 3a3e
00000050: 2234 a23e f063 a3bb 93ce 703e 787c 5abd
00000060: dee6 70bd abd2 9d3e eef1 20be f663 be3d
00000070: 9158 293e 77cd dfbd 94aa 223c fb3c ebbd
00000080: ebdb ad3d 8d14 5e3e 0073 ebbe 7946 683e
00000090: ce66 1dbc 7c81 693e 27a3 19be 583e 5cbd
000000a0: 667c 203e cd03 de3e 4b39 19be adea 8fbe
000000b0: ef81 353d 73a4 98bd c3e4 84be 106c 0abe
000000c0: 484a b3be 2935 343e 3287 dd3d 188c 87bf
000000d0: 2e6a a63d c694 1dbf cd33 733e c190 a5bd
000000e0: dc51 773d d9ae 49be 8d10 083e fa16 d83e
000000f0: 44ea f6bc 601e dfbd 41e3 38bf 6731 e0bd
00000100: 4d6f 0c3d 2f89 03be bce4 803e d8f5 98be
00000110: a59e ec3d 325b 133e 39f7 0e3e 4537 e4bd
00000120: 2fa4 823e 4cb9 29be cf8d ae3d bb45 013d
00000130: 690f 173e f7ab 963d 7a1e 043e bffc 133e
00000140: e5fc 4e3e fe82 45be 82b4 54be 2a57 593e
00000150: b121 773f f0c5 013e 0fcf 843d ed39 f3bd
00000160: bd13 5f3e 4fa2 ed3d cd95 b53d 2b84 53bf
00000170: 88a8 823e 31c5 52be 5b2e d03c 2e2f 093e
00000180: 83b3 583e c453 983c 8d2f ec3c f763 17bf
00000190: 0ed8 fdbb a7d4 863e 132d 113f 9c58 bbbd
000001a0: 991a ab3e dcf0 d6be ac38 f8bc e611 6a3d
000001b0: 8d7e d33e da43 f93e 793f 533d 0f71 0c3e
000001c0: 9391 a9bd 4613 38be 6ea4 233c 7e54 0d3d
000001d0: f488 963d 05b9 a8be c423 a43c aae6 c83d
000001e0: dfc5 6b3e 6848 b3bd 242f 44be f40e 8c3d
000001f0: 72e4 333e ff33 3f3e 658c bcbd cedf 6a3e
00000200: 8fd5 01bf 8e20 193d e815 973e d90f 91be
00000210: 53eb da3d e300 323e 2ba1 8c3d 6201 283e
00000220: 35c3 a73d e15b 883c 3a2e 4f3d d2d9 823d
00000230: 4ff9 6a3e 4ea0 e3bd b117 89bc f0a8 08be
00000240: 10b1 6dbd ae7b 24be b43b dabc 7efd f9be
00000250: 4146 0ebe 44f3 b2be 345b 813d 36cd c03f
00000260: 74de 57be 46bc 2f3e 53b5 533f 5b4f 94bf
00000270: 8e1e cfbe 840f eebd 86df 603f 656f bb3f
00000280: 76dd c5be 2bfa b5be 11c0 82bf a31a cabd
00000290: 913b 0c3f b682 6a3d ba5a 723f 511f 85bf
000002a0: 6d87 efbe 53de 5a3f b873 983e 6fe8 b7be
000002b0: adfe 88bf cada c43e 2e29 4d3f d687 653f
000002c0: 1837 16bf 4811 853f 9a68 8fbf 8df6 af3e
000002d0: 43ef 813f ca3a 94bf a9b4 413f 6b8b 653f
000002e0: 07a5 e23e 7f92 423f d225 d93d fe4e abbe
000002f0: b29e b3be d8c6 4fbf b4da cd3e 694a 34bf
00000300: 6326 4f3f acf9 40bf d2f0 663e a935 aabe
00000310: ad49 783f 3257 2ebf 0066 70bf 3af1 e3bf
00000320: 34b9 dd3e 3541 ec3e 5b5e 0c3e 0032 29bf
00000330: 4a1e 903f c4c0 3dbf 2478 1c3e 04c5 2abe
00000340: 7263 993f 8720 463f b97c 223e 765c b03d
00000350: 9b3c 3abf 8ae6 ed3d ce0b 063f 471f a3be
00000360: 5c46 1f3f 77d3 57bf b387 c13d cfbd 873e
00000370: 9fc7 b03f 9f3b 9dbe ae48 7c3e e6c9 b5bc
00000380: 10fe d3be 851c 7d3f 1161 a33e aa15 53be
00000390: 7895 25bf 396f 5ebd 8594 cf3e 26e3 e1be
000003a0: d705 6ebe d614 a03d 19d4 1b3f e309 363e
000003b0: 252e 583d 6638 00bf 044c 763e c73f 693e
000003c0: 21cd 5b3e 0604 9dbe 1ad1 6e3f 412d 8cbe
000003d0: a12a 31bf 4661 88be 76fd 123f 5bd3 82bf
000003e0: fe10 3fbe 9aca 23be 4e3c 433f 1cc7 d63e
000003f0: 3012 86be 158a 3bbf 63d8 b33f 945b a2bf

gru.bias_ih_l0 f4 [150]
-0.15952036 -0.12686677 -0.19231969 -0.15428217 -1.6033632 -1.962228 -0.46948105 -0.041358765
-1.3168827 -0.28480017 -0.25361267 -0.5387096 -0.6222379 -0.3576821 -0.16007099 -0.2237701
-0.9442617 -0.9816953 -0.25410423 -0.26047766 -1.4158604 -0.30442795 -0.04543849 -0.08390327
0.07622626 -0.040622327 -0.042204086 -2.3655832 -0.74592465 -0.51713747 -0.0113685625 -0.20753197
-0.23284681 -0.0017619543 -0.072696194 -0.23400581 -0.79644585 0.0650258 -0.20402777 -0.24466391
-0.31511587 -0.13475925 -0.037828766 -0.5354334 -0.345168 -0.34522584 -0.050314702 -1.1920874
-1.3039455 -0.24996436 1.1105965 0.647305 1.7160841 0.9223232 0.10357166 -0.4480789
1.6124849 0.99197686 -0.5855795 -0.05197223 1.3949909 1.5710834 0.8664704 1.4802119
0.6837098 1.3289888 0.083664685 0.14812125 1.2349207 0.4020933 -0.070778094 -0.40182787
1.1505814 0.89546984 1.0833019 0.43087992 1.4193842 -0.5855999 1.205083 1.8862659
0.55286133 0.5268091 0.9275443 0.64718413 0.895435 0.35401866 1.58638 -0.32813963
1.4430387 0.6523569 1.0793321 1.1764836 -0.30459118 0.46492064 1.4453 1.2440429
1.0865494 -0.24913222 0.2153404 0.25038493 0.028358802 -0.002787768 0.01365323 0.023777563
-0.037294805 -0.17903483 0.05102915 0.005564217 0.08084343 0.22459406 -0.02394138 0.07895516
-0.12006952 -0.07933887 0.17918703 0.12360318 0.05353024 -0.0996752 -0.00033236895 -0.023760123
0.02981353 -0.21186626 -0.016703358 -0.04859772 0.005646239 -0.014253795 0.008017853 0.14333759
0.12028715 0.07811678 -0.08081105 0.040273678 -0.009695318 0.0005000735 0.1325002 0.15673248
0.050390776 -0.21054201 0.02390704 -0.1016235 0.10787163 -0.08892495 0.16622102 -0.14718395
0.05029928 -0.024060676 0.13974856 -0.112922005 -0.07063247 -0.14251065
00000000: 4e59 23be 5de9 01be 74ef 44be 25fc 1dbe
00000010: 013b cdbf 492a fbbf d25f f0be cf67 29bd
00000020: 9d8f a8bf 54d1 91be 85d9 81be dfe8 09bf
00000030: fc4a 1fbf 1c22 b7be a6e9 23be fd23 65be
00000040: 23bb 71bf 6250 7bbf f319 82be 545d 85be
00000050: ea3a b5bf fbdd 9bbe b61d 3abd 7ad5 abbd
00000060: 831c 9c3d 9963 26bd 31de 2cbd b765 17c0
00000070: ebf4 3ebf 1f63 04bf 3543 3abc 4383 54be
00000080: 656f 6ebe 60f1 e6ba bee1 94bd 389f 6fbe
00000090: e0e3 4bbf 3f2c 853d a8ec 50be 2d89 7abe
000000a0: de56 a1be 54fe 09be 56f2 1abd 2a12 09bf
000000b0: dcb9 b0be 71c1 b0be ca16 4ebd 5296 98bf
000000c0: b0e7 a6bf a8f6 7fbe 0728 8e3f c8b5 253f
000000d0: a5a8 db3f 601d 6c3f 611d d43d 996a e5be
000000e0: e865 ce3f 32f2 7d3f 8ae8 15bf d5e0 54bd
000000f0: 108f b23f 4319 c93f 01d1 5d3f 9577 bd3f
00000100: 9b07 2f3f 4e1c aa3f 6458 ab3d 19ad 173e
00000110: e211 9e3f 2cdf cd3e 1bf4 90bd 62bc cdbe
00000120: 4046 933f 833d 653f a3a9 8a3f 4b9c dc3e
00000130: 62ae b53f e0e9 15bf 2940 9a3f 2971 f13f
00000140: 5288 0d3f f6dc 063f 8b73 6d3f dcad 253f
00000150: 3a3b 653f ef41 b53e 800e cb3f eb01 a8be
00000160: 7eb5 b83f dd00 273f 8e27 8a3f 0497 963f
00000170: 60f3 9bbe 140a ee3e 97ff b83f cc3c 9f3f
00000180: 0d14 8b3f 841c 7fbe 3282 5c3e 7432 803e
00000190: b850 e83c fcb2 36bb ccb1 5f3c 2ac9 c23c
000001a0: 70c2 18bd e854 37be f103 513d 0954 b63b
000001b0: 3d91 a53d fcfb 653e b720 c4bc 3eb3 a13d
000001c0: 02e7 f5bd 6b7c a2bd ce7c 373e aa23 fd3d
000001d0: 8642 5b3d 8322 ccbd ce41 aeb9 97a4 c2bc
000001e0: 813b f43c 78f3 58be 7bd5 88bc 670e 47bd
000001f0: 1604 b93b c088 69bc 505d 033c 17c7 123e
00000200: 1c59 f63d b1fb 9f3d 4480 a5bd 03f6 243d
00000210: 1cd9 1ebc 5d17 033a 22ae 073e 7b7e 203e
00000220: 8f66 4e3d 5398 57be b2d8 c33c fb1f d0bd
00000230: cdeb dc3d 491e b6bd d835 2a3e 64b7 16be
00000240: 9e06 4e3d e51a c5bc 3f1a 0f3e a743 e7bd
00000250: c2a7 90bd 50ee 11be

gru.bias_hh_l0 f4 [150]
-0.236288 -0.07020404 -0.34007162 -0.14486909 -1.6057423 -2.1630228 -0.62841034 -0.14722751
-1.18416 -0.19138789 -0.23601064 -0.75719255 -0.54889923 -0.3177037 -0.20249808 -0.14761801
-0.9607853 -1.0925665 -0.052636594 -0.11935884 -1.3877795 -0.04499118 0.075944945 0.041539546
0.2793099 -0.13353245 0.06709885 -2.4053848 -0.8342481 -0.39725512 -0.02683315 -0.20672324
-0.17732698 -0.088524 -0.0639539 -0.17697258 -0.69136083 0.024425045 -0.0020572643 -0.17274831
-0.35784772 0.036929898 -0.15856394 -0.32967514 -0.31252965 -0.33633932 -0.12339138 -1.3207598
-1.1856406 -0.24331094 1.0712819 0.632038 1.8997287 0.8989739 0.11347446 -0.2942901
1.7138712 1.1528147 -0.38253063 -0.074233525 1.2790422 1.4875854 0.95077914 1.6280183
0.547914 1.3593165 0.15424795 0.18227051 1.3708444 0.2531001 -0.22088937 -0.46117726
1.207198 0.88109744 0.9875139 0.3471552 1.402083 -0.4597298 1.2882518 1.6533349
0.6735563 0.50855184 0.79730517 0.8203455 0.953882 0.14213121 1.7794305 -0.31361774
1.4731051 0.62515175 1.0319387 0.9539335 -0.32534876 0.5750172 1.659984 1.2883604
1.009299 -0.1268128 0.16402924 0.22369191 0.054618422 -0.07204456 -0.05917605 -0.13460213
-0.022418719 -0.07562227 0.03768845 -0.15380083 0.08588378 -0.066115685 0.22278771 -0.077054374
-0.15768147 0.024790756 0.10702875 -0.095196456 0.06797324 0.005543653 -0.02327758 -0.061128423
0.025206406 0.073399 0.028003471 0.037883047 0.12776761 0.14485519 -0.1609282 0.08287529
0.086247645 0.023213223 -0.15526338 0.14407717 0.04616329 0.04994369 0.11029751 0.037601616
0.058074582 -0.2523846 0.1998331 0.20225887 -0.052647177 -0.20695552 0.11591708 0.17000532
0.053553768 0.03635835 0.031033613 -0.13418998 0.08802653 0.14669368
00000000: 7bf5 71be 23c7 8fbd de1d aebe 9058 14be
00000010: f788 cdbf f76e 0ac0 80df 20bf cfc2 16be
00000020: 8e92 97bf 30fb 43be c6ac 71be 5fd7 41bf
00000030: a984 0cbf 0faa a2be a85b 4fbe 2d29 17be
00000040: 07f6 75bf 38d9 8bbf 7899 57bd 6872 f4bd
00000050: c2a2 b1bf ac48 38bd 0689 9b3d 5f25 2a3d
00000060: b501 8f3e bbbc 08be 1f6b 893d d3f1 19c0
00000070: 4991 55bf 0665 cbbe 32d1 dbbc 42af 53be
00000080: 3495 35be 124c b5bd 43fa 82bd 4d38 35be
00000090: 06fd 30bf 0817 c83c 2bd3 06bb efe4 30be
000000a0: d137 b7be ce43 173d 965e 22be 2ecb a8be
000000b0: e303 a0be ab34 acbe 9fb4 fcbd a80e a9bf
000000c0: 12c3 97bf 8126 79be c41f 893f 3ecd 213f
000000d0: 4f2a f33f 2723 663f 4c65 e83d 31ad 96be
000000e0: 2260 db3f 6f8f 933f 0edb c3be bf07 98bd
000000f0: a8b7 a33f 3369 be3f 4366 733f e762 d03f
00000100: 1844 0c3f 15fe ad3f 2df3 1d3e 1fa5 3a3e
00000110: d477 af3f 5696 813e d330 62be 6d1f ecbe
00000120: 7785 9a3f 9a8f 613f b6cd 7c3f 54be b13e
00000130: 7577 b33f b461 ebbe 6fe5 a43f 7aa0 d33f
00000140: 306e 2c3f 7430 023f 311c 4c3f 2a02 523f
00000150: 9c31 743f d88a 113e 61c4 e33f 8192 a0be
00000160: b58e bc3f f209 203f 9116 843f fc34 743f
00000170: 1d94 a6be 5434 133f 5b7a d43f fee8 a43f
00000180: b630 813f 37db 01be 48f7 273e 7e0f 653e
00000190: 91b7 5f3d 198c 93bd 9662 72bd 24d5 09be
000001a0: 76a7 b7bc d9df 9abd 345f 1a3d f77d 1dbe
000001b0: d6e3 af3d a967 87bd 7622 643e afce 9dbd
000001c0: 4077 21be fc15 cb3c e431 db3d 5cf6 c2bd
000001d0: 8e35 8b3d 88a7 b53b a0b0 bebc cc61 7abd
000001e0: aa7d ce3c 3752 963d 8967 e53c 412b 1b3d
000001f0: 83d5 023e eb54 143e 5dca 24be 85ba a93d
00000200: 9ba2 b03d a829 be3c 5dfd 1ebe f788 133e
00000210: b815 3d3d c191 4c3d a9e3 e13d 2704 1a3d
00000220: 9ddf 6d3d 8e38 81be 0ca1 4c3e f31c 4f3e
00000230: 91a4 57bd 26ec 53be ef65 ed3d e015 2e3e
00000240: 325b 5b3d 7eec 143d 343a fe3c 1969 09be
00000250: 4147 b43d de36 163e

fc.weight f4 [1, 50]
-0.09760391 -0.0046297438 0.00423439 -0.060379673 -0.20205392 0.26516727 0.01051935 0.028532863
-0.16757818 0.0057452004 0.013319474 0.004263501 0.0010578765 0.02764131 0.027095858 -0.032737922
-0.08214741 0.095978044 0.06280094 -0.034933116 -0.16773677 0.030143738 0.032029673 -0.02017789
0.006588917 -0.09026735 -0.0020797332 -0.16378097 -0.03903625 0.009572804 0.03362425 -0.01877374
-0.019046634 -0.027430512 -0.032813966 -0.062040888 0.0039686556 0.047702484 0.005570782 0.026719997
-0.008795494 0.011367571 -0.006115582 0.08874522 -0.016335549 -0.030470766 0.0078043863 0.36466792
0.14882715 -0.028210584
00000000: 8fe4 c7bd 1bb5 97bb a3c0 8a3b ad50 77bd
00000010: 39e7 4ebe 01c4 873e 5a59 2c3c c0bd e93c
00000020: 9d99 2bbe 3c42 bc3b ec39 5a3c d7b4 8b3b
00000030: 72a8 8a3a 0770 e23c 22f8 dd3c 3318 06bd
00000040: e73c a8bd 2390 c43d c79d 803d 0716 0fbd
00000050: 30c3 2bbe 00f0 f63c 8c31 033d 1a4c a5bc
00000060: d8e7 d73b 17de b8bd 224c 08bb 33b6 27be
00000070: 7ae4 1fbd 40d7 1c3c 95b9 093d 63cb 99bc
00000080: b007 9cbc f4b5 e0bc f067 06bd 961e 7ebd
00000090: 7f0b 823b ae63 433d 1b8b b63b e5e3 da3c
000000a0: fa1a 10bc 0c3f 3a3c 3865 c8bb 0ec0 b53d
000000b0: 21d2 85bc d49d f9bc f0bb ff3b c1b5 ba3e
000000c0: 2566 183e e219 e7bc
